Prompt Reverse Engineering/cache/ViT-L-14_openai_trendings.safetensors (safetensors, 110800 bytes, 2 tensors)

embeds f2 [72, 768]
0	0xa2fc	-0.01364
1	0x0c7d	0.000274
2	0x9ada	-0.003345
3	0xa0b1	-0.00916
4	0x98d4	-0.002357
5	0x9f23	-0.00697
6	0x2057	0.00848
7	0x99b8	-0.002792
8	0x1dea	0.005775
9	0x2226	0.01201
10	0x9ded	-0.005787
11	0x1fe9	0.007725
12	0x188b	0.002218
13	0x17d3	0.00191
14	0xa82f	-0.03268
15	0x9e9b	-0.00645
16	0x19d6	0.00285
17	0x25cd	0.02266
18	0x2922	0.0401
19	0x9c40	-0.00415
20	0x26d1	0.02663
21	0x243c	0.01654
22	0x9d47	-0.005154
23	0x1efb	0.006817
24	0x24eb	0.01921
25	0x2193	0.01089
26	0x99ff	-0.002928
27	0xa0af	-0.00915
28	0x24e9	0.01918
29	0x1c65	0.00429
30	0x20c9	0.009346
31	0x226e	0.01256
32	0xa799	-0.02968
33	0x21e4	0.011505
34	0xa02a	-0.00813
35	0xa125	-0.01005
36	0x230e	0.01378
37	0x1be8	0.00386
38	0xa245	-0.012245
39	0xa4d7	-0.0189
40	0x2235	0.01212
41	0x1a1d	0.002985
42	0x2321	0.01392
43	0x9bd3	-0.00382
44	0x249b	0.01799
45	0x26fa	0.02725
46	0x1790	0.001846
47	0x9f78	-0.007294
48	0x9dce	-0.00567
49	0x2406	0.01572
50	0x23e2	0.015396
51	0xa463	-0.01714
52	0xa5d2	-0.02274
53	0x20dc	0.00949
54	0x9f39	-0.007053
55	0x16b9	0.001641
56	0x16de	0.001677
57	0x96a7	-0.001624
58	0x2408	0.01575
59	0x20b1	0.00916
60	0x22a4	0.01297
61	0x26b4	0.02618
62	0x905e	-0.000533
63	0xa46d	-0.01729
64	0xa21e	-0.01195
65	0x2199	0.01093
66	0x21e2	0.01149
67	0xa1ff	-0.01171
68	0x17fe	0.001951
69	0x9f13	-0.00691
70	0x2202	0.011734
71	0x9f4a	-0.00712
72	0x9d82	-0.00538
73	0xa46b	-0.01726
74	0x9d40	-0.005127
75	0x1d50	0.005188
76	0x2943	0.0411
77	0x242f	0.01634
78	0x2742	0.02835
79	0xa7ee	-0.03098
80	0xa663	-0.02495
81	0xa638	-0.02429
82	0x2671	0.02516
83	0x9fb5	-0.007526
84	0x1fa9	0.00748
85	0x2078	0.00873
86	0x1bcd	0.003809
87	0x24f3	0.01933
88	0xa057	-0.00848
89	0xa109	-0.009834
90	0xa439	-0.0165
91	0x208c	0.00888
92	0x9c3d	-0.00414
93	0x1d88	0.0054
94	0xa694	-0.0257
95	0x22ee	0.013535
96	0x9a85	-0.003183
97	0x20ea	0.0096
98	0x1d74	0.005325
99	0x9fdd	-0.00768
100	0xa1f6	-0.01164
101	0xa3ae	-0.015
102	0x9c41	-0.004154
103	0x2543	0.02055
104	0x2428	0.01624
105	0xa2d4	-0.013336
106	0x21a5	0.011024
107	0x2045	0.00834
108	0x1ec2	0.0066
109	0x18df	0.002378
110	0xa115	-0.009926
111	0x21fe	0.0117
112	0x2048	0.00836
113	0x8843	-0.00013
114	0x9f2f	-0.007015
115	0xa00c	-0.007904
116	0x2239	0.01215
117	0x9b3f	-0.003538
118	0x240e	0.01584
119	0x2275	0.01261
120	0x9851	-0.002108
121	0xa439	-0.0165
122	0x9bea	-0.003864
123	0xa408	-0.01575
124	0x215f	0.01049
125	0x299f	0.0439
126	0xa474	-0.0174
127	0x251c	0.01996
128	0x1ce7	0.004787
129	0x9e2d	-0.00603
130	0xa1ed	-0.01157
131	0xa23b	-0.01217
132	0xa4ee	-0.01926
133	0xa559	-0.02089
134	0x18b9	0.002306
135	0xa517	-0.01988
136	0x1a88	0.00319
137	0x250c	0.01971
138	0xa00c	-0.007904
139	0x8415	-6.23e-05
140	0x22c6	0.01323
141	0x2616	0.02377
142	0xa4f0	-0.01929
143	0xa08e	-0.008896
144	0x227a	0.01265
145	0x9eab	-0.00651
146	0x9811	-0.001986
147	0x257e	0.02145
148	0x1c06	0.00393
149	0x215f	0.01049
150	0x1dc9	0.00565
151	0x9ee4	-0.00673
152	0xa6a4	-0.02594
153	0xa0e2	-0.00954
154	0xa37d	-0.014626
155	0x9e89	-0.006382
156	0xa42a	-0.01627
157	0xa226	-0.01201
158	0x1f8a	0.007362
159	0x84d0	-7.343e-05
160	0x241e	0.01608
161	0x20f7	0.0097
162	0x9c7d	-0.004383
163	0x9de8	-0.005768
164	0x9b6f	-0.00363
165	0x2087	0.00884
166	0xa5c7	-0.02257
167	0x25d7	0.02281
168	0xa980	-0.04297
169	0x1d3b	0.005108
170	0x18cd	0.002344
171	0x9e4d	-0.006153
172	0x9cc8	-0.00467
173	0x1d00	0.004883
174	0x9e7a	-0.006325
175	0x275e	0.02878
176	0x2700	0.02734
177	0xa90f	-0.03952
178	0x2980	0.04297
179	0x1f98	0.007416
180	0x1f38	0.00705
181	0x959f	-0.001372
182	0x9e61	-0.00623
183	0xa036	-0.008224
184	0x142c	0.001019
185	0xa085	-0.00883
186	0x218c	0.01083
187	0x9aa1	-0.003237
188	0x2784	0.02936
189	0xa680	-0.02539
190	0xa3bc	-0.01511
191	0xa70a	-0.0275
192	0x2204	0.01175
193	0x9f86	-0.007347
194	0x2740	0.02832
195	0xae5c	-0.09937
196	0x9b71	-0.003633
197	0xa0d4	-0.00943
198	0x1919	0.00249
199	0x226e	0.01256
200	0x14eb	0.001201
201	0x228a	0.01277
202	0x9e0f	-0.005917
203	0x949c	-0.001125
204	0x97b8	-0.001884
205	0x2187	0.010796
206	0xa0b8	-0.00922
207	0x280c	0.03162
208	0x2225	0.012
209	0x13c9	0.0009503
210	0x9b5e	-0.003597
211	0x2445	0.01668
212	0x2120	0.01001
213	0x0c2e	0.000255
214	0x23f2	0.01552
215	0x9d76	-0.005333
216	0x1e4f	0.00616
217	0x23f4	0.01553
218	0x9fd0	-0.00763
219	0x9f2c	-0.007004
220	0x217b	0.010704
221	0x2496	0.01791
222	0x22cc	0.013275
223	0x9fb7	-0.007534
224	0x9c47	-0.004177
225	0x2893	0.03574
226	0xa4c1	-0.01857
227	0x1b4c	0.003563
228	0x1f67	0.00723
229	0xa151	-0.01038
230	0xa00a	-0.00789
231	0xa4e9	-0.01918
232	0xa172	-0.010635
233	0x1d50	0.005188
234	0xa163	-0.01052
235	0x24d1	0.01881
236	0x251a	0.01993
237	0x2036	0.008224
238	0x1474	0.001087
239	0x2076	0.00871
240	0x243f	0.01659
241	0x9c8e	-0.004448
242	0x9cf5	-0.00484
243	0x2412	0.0159
244	0x927c	-0.0007915
245	0x9b05	-0.003428
246	0x1d48	0.005157
247	0x9b57	-0.003584
248	0x9d59	-0.005222
249	0x91a6	-0.0006895
250	0x24ca	0.0187
251	0x9f77	-0.00729
252	0x1885	0.002207
253	0x211a	0.009964
254	0x98c7	-0.002333
255	0x259d	0.02193

hash i1 [64]
0	0x33	51
1	0x61	97
2	0x61	97
3	0x64	100
4	0x30	48
5	0x32	50
6	0x30	48
7	0x35	53
8	0x61	97
9	0x34	52
10	0x34	52
11	0x32	50
12	0x39	57
13	0x37	55
14	0x61	97
15	0x33	51
16	0x34	52
17	0x65	101
18	0x39	57
19	0x31	49
20	0x32	50
21	0x30	48
22	0x34	52
23	0x32	50
24	0x35	53
25	0x32	50
26	0x31	49
27	0x32	50
28	0x31	49
29	0x66	102
30	0x64	100
31	0x33	51
32	0x39	57
33	0x39	57
34	0x35	53
35	0x37	55
36	0x30	48
37	0x65	101
38	0x65	101
39	0x65	101
40	0x35	53
41	0x36	54
42	0x32	50
43	0x37	55
44	0x61	97
45	0x36	54
46	0x33	51
47	0x30	48
48	0x66	102
49	0x35	53
50	0x35	53
51	0x39	57
52	0x35	53
53	0x36	54
54	0x61	97
55	0x66	102
56	0x61	97
57	0x33	51
58	0x33	51
59	0x38	56
60	0x63	99
61	0x65	101
62	0x61	97
63	0x63	99
